…
 'use_input_features': True,
 'val_fold_index': None,
 'warmup_epochs': 2.0}
Setting molecule featurization parameters to default.
Loading data
Number of tasks = 1
Fold 0
Splitting data with seed 0
Warning: Repeated SMILES found in data, pickle file of split indices cannot distinguish entries and will not be generated.
Total size = 5,294 | train size = 4,235 | val size = 529 | test size = 530
Fitting scaler
Building model 0
MoleculeModel(
  (encoder): MPN(
    (encoder): ModuleList(
      (0): MPNEncoder(
        (dropout_layer): Dropout(p=0.0, inplace=False)
        (act_func): PReLU(num_parameters=1)
        (W_i): Linear(in_features=147, out_features=300, bias=False)
        (W_h): Linear(in_features=300, out_features=300, bias=False)
        (W_o): Linear(in_features=433, out_features=300, bias=True)
      )
    )
  )
  (ffn): Sequential(
    (0): Dropout(p=0.0, inplace=False)
    (1): Linear(in_features=660, out_features=658, bias=True)
    (2): PReLU(num_parameters=1)
    (3): Dropout(p=0.0, inplace=False)
    (4): Linear(in_features=658, out_features=658, bias=True)
    (5): PReLU(num_parameters=1)
    (6): Dropout(p=0.0, inplace=False)
    (7): Linear(in_features=658, out_features=658, bias=True)
    (8): PReLU(num_parameters=1)
    (9): Dropout(p=0.0, inplace=False)
    (10): Linear(in_features=658, out_features=658, bias=True)
    (11): PReLU(num_parameters=1)
    (12): Dropout(p=0.0, inplace=False)
    (13): Linear(in_features=658, out_features=658, bias=True)
    (14): PReLU(num_parameters=1)
    (15): Dropout(p=0.0, inplace=False)
    (16): Linear(in_features=658, out_features=658, bias=True)
    (17): PReLU(num_parameters=1)
    (18): Dropout(p=0.0, inplace=False)
    (19): Linear(in_features=658, out_features=658, bias=True)
    (20): PReLU(num_parameters=1)
    (21): Dropout(p=0.0, inplace=False)
    (22): Linear(in_features=658, out_features=1, bias=True)
  )
)
Number of parameters = 3,301,931
Epoch 0
Command line
python train.py --data_path tests/data/mol_ddg_Imp_dir_inv_uf50un30.csv --dataset_type regression --save_dir model_checkP_dir_inverse_uf50un30 --features_path tests/data/features_Imp_dir_inv_uf50un30.csv
Args
{'activation': 'PReLU',
 'adding_h': False,
 'aggregation': 'mean',
 'aggregation_norm': 100,
…
 'use_input_features': True,
 'val_fold_index': None,
 'warmup_epochs': 2.0}
Setting molecule featurization parameters to default.
Loading data
Number of tasks = 1
Fold 0
Splitting data with seed 0
Warning: Repeated SMILES found in data, pickle file of split indices cannot distinguish entries and will not be generated.
Total size = 5,294 | train size = 4,235 | val size = 529 | test size = 530
Fitting scaler
Building model 0
MoleculeModel(
  (encoder): MPN(
    (encoder): ModuleList(
      (0): MPNEncoder(
        (dropout_layer): Dropout(p=0.0, inplace=False)
        (act_func): PReLU(num_parameters=1)
        (W_i): Linear(in_features=147, out_features=300, bias=False)
        (W_h): Linear(in_features=300, out_features=300, bias=False)
        (W_o): Linear(in_features=433, out_features=300, bias=True)
      )
    )
  )
  (ffn): Sequential(
    (0): Dropout(p=0.0, inplace=False)
    (1): Linear(in_features=660, out_features=660, bias=True)
    (2): PReLU(num_parameters=1)
    (3): Dropout(p=0.0, inplace=False)
    (4): Linear(in_features=660, out_features=660, bias=True)
    (5): PReLU(num_parameters=1)
    (6): Dropout(p=0.0, inplace=False)
    (7): Linear(in_features=660, out_features=660, bias=True)
    (8): PReLU(num_parameters=1)
    (9): Dropout(p=0.0, inplace=False)
    (10): Linear(in_features=660, out_features=660, bias=True)
    (11): PReLU(num_parameters=1)
    (12): Dropout(p=0.0, inplace=False)
    (13): Linear(in_features=660, out_features=660, bias=True)
    (14): PReLU(num_parameters=1)
    (15): Dropout(p=0.0, inplace=False)
    (16): Linear(in_features=660, out_features=660, bias=True)
    (17): PReLU(num_parameters=1)
    (18): Dropout(p=0.0, inplace=False)
    (19): Linear(in_features=660, out_features=660, bias=True)
    (20): PReLU(num_parameters=1)
    (21): Dropout(p=0.0, inplace=False)
    (22): Linear(in_features=660, out_features=1, bias=True)
  )
)
Number of parameters = 3,319,083
Epoch 0
Loss = 1.0263e+00, PNorm = 74.0150, GNorm = 1.8919, lr_0 = 1.5893e-04
Loss = 8.7231e-01, PNorm = 74.0247, GNorm = 4.9570, lr_0 = 2.1250e-04
Loss = 7.3274e-01, PNorm = 74.0355, GNorm = 8.6309, lr_0 = 2.6607e-04
Loss = 8.3971e-01, PNorm = 74.0436, GNorm = 6.6695, lr_0 = 3.1964e-04
Loss = 7.5271e-01, PNorm = 74.0561, GNorm = 2.5698, lr_0 = 3.7321e-04
…
